…
2018-11-16 18:38:41.902350 : DEEP SUCCESS : File loaded : core/project/deep_structure/config/losses.yaml
2018-11-16 18:38:41.902435 : DEEP ERROR : File not found : core/project/deep_structure/config/history.yaml
2018-11-16 18:38:41.902508 : DEEP SUCCESS : All necessary configurations have been imported
2018-11-16 18:38:45.631621 : DEEP INFO : ----------------------------------------------------------------
2018-11-16 18:38:45.631850 : DEEP INFO :         Layer (type)               Output Shape         Param #
2018-11-16 18:38:45.631970 : DEEP INFO : ================================================================
2018-11-16 18:38:45.632239 : DEEP INFO :             Conv2d-1           [4, 6, 212, 380]             456
2018-11-16 18:38:45.632387 : DEEP INFO :          MaxPool2d-2           [4, 6, 106, 190]               0
2018-11-16 18:38:45.632528 : DEEP INFO :             Conv2d-3          [4, 16, 102, 186]           2,416
2018-11-16 18:38:45.632673 : DEEP INFO :          MaxPool2d-4            [4, 16, 51, 93]               0
2018-11-16 18:38:45.632810 : DEEP INFO :            Flatten-5                 [4, 75888]               0
2018-11-16 18:38:45.632949 : DEEP INFO :             Linear-6                   [4, 120]       9,106,680
2018-11-16 18:38:45.633079 : DEEP INFO :             Linear-7                    [4, 84]          10,164
2018-11-16 18:38:45.633223 : DEEP INFO :             Linear-8                     [4, 2]             170
2018-11-16 18:38:45.633419 : DEEP INFO : ================================================================
2018-11-16 18:38:45.633512 : DEEP INFO : Total params: 9,119,886
2018-11-16 18:38:45.633603 : DEEP INFO : Trainable params: 9,119,886
2018-11-16 18:38:45.633757 : DEEP INFO : Non-trainable params: 0
2018-11-16 18:38:45.633850 : DEEP INFO : ----------------------------------------------------------------
…
