…
2018-11-16 18:41:47.908756 : DEEP SUCCESS : File loaded : core/project/deep_structure/config/losses.yaml
2018-11-16 18:41:47.908973 : DEEP ERROR : File not found : core/project/deep_structure/config/history.yaml
2018-11-16 18:41:47.909200 : DEEP SUCCESS : All necessary configurations have been imported
2018-11-16 18:41:49.599968 : DEEP INFO : ----------------------------------------------------------------
2018-11-16 18:41:49.600088 : DEEP INFO :         Layer (type)               Output Shape         Param #
2018-11-16 18:41:49.600145 : DEEP INFO : ================================================================
2018-11-16 18:41:49.600296 : DEEP INFO :             Conv2d-1           [4, 6, 212, 380]             456
2018-11-16 18:41:49.600373 : DEEP INFO :          MaxPool2d-2           [4, 6, 106, 190]               0
2018-11-16 18:41:49.600447 : DEEP INFO :             Conv2d-3          [4, 16, 102, 186]           2,416
2018-11-16 18:41:49.600513 : DEEP INFO :          MaxPool2d-4            [4, 16, 51, 93]               0
2018-11-16 18:41:49.600577 : DEEP INFO :            Flatten-5                 [4, 75888]               0
2018-11-16 18:41:49.600645 : DEEP INFO :             Linear-6                   [4, 120]       9,106,680
2018-11-16 18:41:49.600711 : DEEP INFO :             Linear-7                    [4, 84]          10,164
2018-11-16 18:41:49.600774 : DEEP INFO :             Linear-8                     [4, 2]             170
2018-11-16 18:41:49.600874 : DEEP INFO : ================================================================
2018-11-16 18:41:49.600920 : DEEP INFO : Total params: 9,119,886
2018-11-16 18:41:49.600963 : DEEP INFO : Trainable params: 9,119,886
2018-11-16 18:41:49.601034 : DEEP INFO : Non-trainable params: 0
2018-11-16 18:41:49.601073 : DEEP INFO : ----------------------------------------------------------------
…
