…
2018-11-16 18:40:11.898762 : DEEP SUCCESS : File loaded : core/project/deep_structure/config/losses.yaml
2018-11-16 18:40:11.898921 : DEEP ERROR : File not found : core/project/deep_structure/config/history.yaml
2018-11-16 18:40:11.899103 : DEEP SUCCESS : All necessary configurations have been imported
2018-11-16 18:40:13.582841 : DEEP INFO : ----------------------------------------------------------------
2018-11-16 18:40:13.582950 : DEEP INFO :         Layer (type)               Output Shape         Param #
2018-11-16 18:40:13.583001 : DEEP INFO : ================================================================
2018-11-16 18:40:13.583133 : DEEP INFO :             Conv2d-1           [4, 6, 212, 380]             456
2018-11-16 18:40:13.583207 : DEEP INFO :          MaxPool2d-2           [4, 6, 106, 190]               0
2018-11-16 18:40:13.583280 : DEEP INFO :             Conv2d-3          [4, 16, 102, 186]           2,416
2018-11-16 18:40:13.583346 : DEEP INFO :          MaxPool2d-4            [4, 16, 51, 93]               0
2018-11-16 18:40:13.583413 : DEEP INFO :            Flatten-5                 [4, 75888]               0
2018-11-16 18:40:13.583483 : DEEP INFO :             Linear-6                   [4, 120]       9,106,680
2018-11-16 18:40:13.583551 : DEEP INFO :             Linear-7                    [4, 84]          10,164
2018-11-16 18:40:13.583619 : DEEP INFO :             Linear-8                     [4, 2]             170
2018-11-16 18:40:13.583719 : DEEP INFO : ================================================================
2018-11-16 18:40:13.583769 : DEEP INFO : Total params: 9,119,886
2018-11-16 18:40:13.583839 : DEEP INFO : Trainable params: 9,119,886
2018-11-16 18:40:13.583912 : DEEP INFO : Non-trainable params: 0
2018-11-16 18:40:13.583955 : DEEP INFO : ----------------------------------------------------------------
…
